Device cuda
Loading csv... Device cuda
Loading csv... done, took 5.8s
Parsing... done, took 4.9s
Loading csv... done, took 0.0s
Parsing... done, took 0.0s
ordering [ 0  1  2  3  4  5  6  7  8  9 10]
Number of model parameters: 544177 (~= 2.1MB)
FLASHTransformer(
  (layers): Sequential(
    (0): FLASH(
      (attn_fn): ReLUSquared()
      (rotary_pos_emb): RotaryEmbedding()
      (rel_pos_bias): T5RelativePositionBias(
        (relative_attention_bias): Embedding(32, 1)
      )
      (norm): ScaleNorm()
      (dropout): Dropout(p=0.0, inplace=False)
      (to_hidden): Sequential(
        (0): Linear(in_features=128, out_features=512, bias=True)
        (1): SiLU()
      )
      (to_qk): Sequential(
        (0): Linear(in_features=128, out_features=128, bias=True)
        (1): SiLU()
      )
      (qk_offset_scale): OffsetScale()
      (to_out): Linear(in_features=256, out_features=128, bias=True)
    )
  )
  (to_logits): LayerNorm((128,), eps=1e-05, elementwise_affine=True)
  (embeddings): ModuleList(
    (0): Embedding(2, 128)
    (1): Embedding(69, 128)
    (2): Embedding(77, 128)
    (3): Embedding(63, 128)
    (4): Embedding(57, 128)
    (5): Embedding(8, 128)
    (6): Embedding(2828, 128)
    (7): Embedding(218, 128)
    (8): Embedding(2, 128)
    (9): Embedding(2, 128)
    (10): Embedding(2, 128)
  )
  (pos_embeddings): Embedding(11, 128)
)
Loading ckpt: /home/jixy/naru/models/pretrained/DMV/DMV_ofnan_p100/dmv-ofnan-2.1MB-model20.151-data19.343-flash-blocks1-embed_dim128-expansion_factor2.0-group_size128-posEmb-20epochs-seed0.pt
Parsing... done, took 3.8s
Discretizing table... done, took 3.7s
Discretizing table... done, took 0.0s
Discretizing table... done, took 3.7s
Epoch None Iter 0, test loss 13.7833 nats / 19.8852 bits
…
Entropy of DMV([Column(Record Type, distribution_size=2), Column(Registration Class, distribution_size=35), Column(State, distribution_size=18), Column(County, distribution_size=63), Column(Body Type, distribution_size=34), Column(Fuel Type, distribution_size=7), Column(Reg Valid Date, distribution_size=805), Column(Color, distribution_size=47), Column(Scofflaw Indicator, distribution_size=2), Column(Suspension Indicator, distribution_size=2), Column(Revocation Indicator, distribution_size=2)]): 12.2614 bits
OOD state:True
Number of model parameters: 544177 (~= 2.1MB)
FLASHTransformer(
  (layers): Sequential(
    (0): FLASH(
      (attn_fn): ReLUSquared()
      (rotary_pos_emb): RotaryEmbedding()
      (rel_pos_bias): T5RelativePositionBias(
        (relative_attention_bias): Embedding(32, 1)
      )
      (norm): ScaleNorm()
      (dropout): Dropout(p=0.0, inplace=False)
      (to_hidden): Sequential(
        (0): Linear(in_features=128, out_features=512, bias=True)
        (1): SiLU()
      )
      (to_qk): Sequential(
        (0): Linear(in_features=128, out_features=128, bias=True)
        (1): SiLU()
      )
      (qk_offset_scale): OffsetScale()
      (to_out): Linear(in_features=256, out_features=128, bias=True)
    )
  )
  (to_logits): LayerNorm((128,), eps=1e-05, elementwise_affine=True)
  (embeddings): ModuleList(
    (0): Embedding(2, 128)
    (1): Embedding(69, 128)
    (2): Embedding(77, 128)
    (3): Embedding(63, 128)
    (4): Embedding(57, 128)
    (5): Embedding(8, 128)
    (6): Embedding(2828, 128)
    (7): Embedding(218, 128)
    (8): Embedding(2, 128)
    (9): Embedding(2, 128)
    (10): Embedding(2, 128)
  )
  (pos_embeddings): Embedding(11, 128)
)
Device cuda
Loading csv... done, took 5.8s
Parsing... done, took 5.0s
Loading csv... done, took 0.0s
Parsing... done, took 0.0s
ordering [ 0  1  2  3  4  5  6  7  8  9 10]
Number of model parameters: 544177 (~= 2.1MB)
FLASHTransformer(
  (layers): Sequential(
    (0): FLASH(
      (attn_fn): ReLUSquared()
      (rotary_pos_emb): RotaryEmbedding()
      (rel_pos_bias): T5RelativePositionBias(
        (relative_attention_bias): Embedding(32, 1)
      )
      (norm): ScaleNorm()
      (dropout): Dropout(p=0.0, inplace=False)
      (to_hidden): Sequential(
        (0): Linear(in_features=128, out_features=512, bias=True)
        (1): SiLU()
      )
      (to_qk): Sequential(
        (0): Linear(in_features=128, out_features=128, bias=True)
        (1): SiLU()
      )
      (qk_offset_scale): OffsetScale()
      (to_out): Linear(in_features=256, out_features=128, bias=True)
    )
  )
  (to_logits): LayerNorm((128,), eps=1e-05, elementwise_affine=True)
  (embeddings): ModuleList(
    (0): Embedding(2, 128)
    (1): Embedding(69, 128)
    (2): Embedding(77, 128)
    (3): Embedding(63, 128)
    (4): Embedding(57, 128)
    (5): Embedding(8, 128)
    (6): Embedding(2828, 128)
    (7): Embedding(218, 128)
    (8): Embedding(2, 128)
    (9): Embedding(2, 128)
    (10): Embedding(2, 128)
  )
  (pos_embeddings): Embedding(11, 128)
)
Loading ckpt: /home/jixy/naru/models/pretrained/DMV/DMV_ofnan_p100/dmv-ofnan-2.1MB-model20.151-data19.343-flash-blocks1-embed_dim128-expansion_factor2.0-group_size128-posEmb-20epochs-seed0.pt
Parsing... done, took 3.8s
Discretizing table... done, took 3.5s
Discretizing table... done, took 0.0s
Discretizing table... done, took 3.6s
Epoch None Iter 0, test loss 13.6678 nats / 19.7185 bits
…
