…
 5   Fuel Type             object        
 6   Reg Valid Date        datetime64[ns]
 7   Color                 object        
 8   Scofflaw Indicator    object        
 9   Suspension Indicator  object        
 10  Revocation Indicator  object        
dtypes: datetime64[ns](1), object(10)
memory usage: 620.2+ MB
None
ordering [ 0  1  2  3  4  5  6  7  8  9 10]
Number of model parameters: 2725012 (~= 10.4MB)
FLASHTransformer(
  (layers): Sequential(
    (0): FLASH(
      (attn_fn): ReLUSquared()
      (rotary_pos_emb): RotaryEmbedding()
      (rel_pos_bias): T5RelativePositionBias(
        (relative_attention_bias): Embedding(32, 1)
      )
      (norm): ScaleNorm()
      (dropout): Dropout(p=0.0, inplace=False)
      (to_hidden): Sequential(
        (0): Linear(in_features=256, out_features=1024, bias=True)
        (1): SiLU()
      )
      (to_qk): Sequential(
        (0): Linear(in_features=256, out_features=256, bias=True)
        (1): SiLU()
      )
      (qk_offset_scale): OffsetScale()
      (to_out): Linear(in_features=512, out_features=256, bias=True)
    )
    (1): FLASH(
      (attn_fn): ReLUSquared()
      (rotary_pos_emb): RotaryEmbedding()
      (rel_pos_bias): T5RelativePositionBias(
        (relative_attention_bias): Embedding(32, 1)
      )
      (norm): ScaleNorm()
      (dropout): Dropout(p=0.0, inplace=False)
      (to_hidden): Sequential(
        (0): Linear(in_features=256, out_features=1024, bias=True)
        (1): SiLU()
      )
      (to_qk): Sequential(
        (0): Linear(in_features=256, out_features=256, bias=True)
        (1): SiLU()
      )
      (qk_offset_scale): OffsetScale()
      (to_out): Linear(in_features=512, out_features=256, bias=True)
    )
    (2): FLASH(
      (attn_fn): ReLUSquared()
      (rotary_pos_emb): RotaryEmbedding()
      (rel_pos_bias): T5RelativePositionBias(
        (relative_attention_bias): Embedding(32, 1)
      )
      (norm): ScaleNorm()
      (dropout): Dropout(p=0.0, inplace=False)
      (to_hidden): Sequential(
        (0): Linear(in_features=256, out_features=1024, bias=True)
        (1): SiLU()
      )
      (to_qk): Sequential(
        (0): Linear(in_features=256, out_features=256, bias=True)
        (1): SiLU()
      )
      (qk_offset_scale): OffsetScale()
      (to_out): Linear(in_features=512, out_features=256, bias=True)
    )
    (3): FLASH(
      (attn_fn): ReLUSquared()
      (rotary_pos_emb): RotaryEmbedding()
      (rel_pos_bias): T5RelativePositionBias(
        (relative_attention_bias): Embedding(32, 1)
      )
      (norm): ScaleNorm()
      (dropout): Dropout(p=0.0, inplace=False)
      (to_hidden): Sequential(
        (0): Linear(in_features=256, out_features=1024, bias=True)
        (1): SiLU()
      )
      (to_qk): Sequential(
        (0): Linear(in_features=256, out_features=256, bias=True)
        (1): SiLU()
      )
      (qk_offset_scale): OffsetScale()
      (to_out): Linear(in_features=512, out_features=256, bias=True)
    )
  )
  (to_logits): LayerNorm((256,), eps=1e-05, elementwise_affine=True)
  (embeddings): ModuleList(
    (0): Embedding(8, 256)
    (1): Embedding(72, 256)
    (2): Embedding(79, 256)
    (3): Embedding(64, 256)
    (4): Embedding(59, 256)
    (5): Embedding(10, 256)
    (6): Embedding(2884, 256)
    (7): Embedding(222, 256)
    (8): Embedding(3, 256)
    (9): Embedding(3, 256)
    (10): Embedding(3, 256)
  )
  (pos_embeddings): Embedding(11, 256)
)
Discretizing table... done, took 4.7s
Epoch 0 Iter 0, train entropy gap 35.3061 bits (loss 54.687, data 19.381) 
Epoch 0 Iter 200, train entropy gap 26.7370 bits (loss 46.118, data 19.381) 
Epoch 0 Iter 400, train entropy gap 12.3735 bits (loss 31.754, data 19.381) 
Epoch 0 Iter 600, train entropy gap 6.0173 bits (loss 25.398, data 19.381) 
Epoch 0 Iter 800, train entropy gap 3.1067 bits (loss 22.488, data 19.381) 
…
