…
 5   Fuel Type             object        
 6   Reg Valid Date        datetime64[ns]
 7   Color                 object        
 8   Scofflaw Indicator    object        
 9   Suspension Indicator  object        
 10  Revocation Indicator  object        
dtypes: datetime64[ns](1), object(10)
memory usage: 620.2+ MB
None
ordering [ 0  1  2  3  4  5  6  7  8  9 10]
Number of model parameters: 2589332 (~= 9.9MB)
FLASHTransformer(
  (layers): Sequential(
    (0): FLASH(
      (attn_fn): ReLUSquared()
      (rotary_pos_emb): RotaryEmbedding()
      (rel_pos_bias): T5RelativePositionBias(
        (relative_attention_bias): Embedding(32, 1)
      )
      (norm): ScaleNorm()
      (dropout): Dropout(p=0.0, inplace=False)
      (to_hidden): Sequential(
        (0): Linear(in_features=256, out_features=1024, bias=True)
        (1): SiLU()
      )
      (to_qk): Sequential(
        (0): Linear(in_features=256, out_features=128, bias=True)
        (1): SiLU()
      )
      (qk_offset_scale): OffsetScale()
      (to_out): Linear(in_features=512, out_features=256, bias=True)
    )
    (1): FLASH(
      (attn_fn): ReLUSquared()
      (rotary_pos_emb): RotaryEmbedding()
      (rel_pos_bias): T5RelativePositionBias(
        (relative_attention_bias): Embedding(32, 1)
      )
      (norm): ScaleNorm()
      (dropout): Dropout(p=0.0, inplace=False)
      (to_hidden): Sequential(
        (0): Linear(in_features=256, out_features=1024, bias=True)
        (1): SiLU()
      )
      (to_qk): Sequential(
        (0): Linear(in_features=256, out_features=128, bias=True)
        (1): SiLU()
      )
      (qk_offset_scale): OffsetScale()
      (to_out): Linear(in_features=512, out_features=256, bias=True)
    )
    (2): FLASH(
      (attn_fn): ReLUSquared()
      (rotary_pos_emb): RotaryEmbedding()
      (rel_pos_bias): T5RelativePositionBias(
        (relative_attention_bias): Embedding(32, 1)
      )
      (norm): ScaleNorm()
      (dropout): Dropout(p=0.0, inplace=False)
      (to_hidden): Sequential(
        (0): Linear(in_features=256, out_features=1024, bias=True)
        (1): SiLU()
      )
      (to_qk): Sequential(
        (0): Linear(in_features=256, out_features=128, bias=True)
        (1): SiLU()
      )
      (qk_offset_scale): OffsetScale()
      (to_out): Linear(in_features=512, out_features=256, bias=True)
    )
    (3): FLASH(
      (attn_fn): ReLUSquared()
      (rotary_pos_emb): RotaryEmbedding()
      (rel_pos_bias): T5RelativePositionBias(
        (relative_attention_bias): Embedding(32, 1)
      )
      (norm): ScaleNorm()
      (dropout): Dropout(p=0.0, inplace=False)
      (to_hidden): Sequential(
        (0): Linear(in_features=256, out_features=1024, bias=True)
        (1): SiLU()
      )
      (to_qk): Sequential(
        (0): Linear(in_features=256, out_features=128, bias=True)
        (1): SiLU()
      )
      (qk_offset_scale): OffsetScale()
      (to_out): Linear(in_features=512, out_features=256, bias=True)
    )
  )
  (to_logits): LayerNorm((256,), eps=1e-05, elementwise_affine=True)
  (embeddings): ModuleList(
    (0): Embedding(8, 256)
    (1): Embedding(72, 256)
    (2): Embedding(79, 256)
    (3): Embedding(64, 256)
    (4): Embedding(59, 256)
    (5): Embedding(10, 256)
    (6): Embedding(2884, 256)
    (7): Embedding(222, 256)
    (8): Embedding(3, 256)
    (9): Embedding(3, 256)
    (10): Embedding(3, 256)
  )
  (pos_embeddings): Embedding(11, 256)
)
Discretizing table... done, took 4.8s
Epoch 0 Iter 0, train entropy gap 35.9301 bits (loss 55.311, data 19.381) 
Epoch 0 Iter 200, train entropy gap 25.0573 bits (loss 44.438, data 19.381) 
Epoch 0 Iter 400, train entropy gap 9.6801 bits (loss 29.061, data 19.381) 
Epoch 0 Iter 600, train entropy gap 4.7402 bits (loss 24.121, data 19.381) 
Epoch 0 Iter 800, train entropy gap 2.2660 bits (loss 21.647, data 19.381) 
…
