…
 5   Fuel Type             object        
 6   Reg Valid Date        datetime64[ns]
 7   Color                 object        
 8   Scofflaw Indicator    object        
 9   Suspension Indicator  object        
 10  Revocation Indicator  object        
dtypes: datetime64[ns](1), object(10)
memory usage: 620.2+ MB
None
ordering [ 0  1  2  3  4  5  6  7  8  9 10]
Number of model parameters: 670802 (~= 2.6MB)
FLASHTransformer(
  (layers): Sequential(
    (0): FLASH(
      (attn_fn): ReLUSquared()
      (rotary_pos_emb): RotaryEmbedding()
      (rel_pos_bias): T5RelativePositionBias(
        (relative_attention_bias): Embedding(32, 1)
      )
      (norm): ScaleNorm()
      (dropout): Dropout(p=0.0, inplace=False)
      (to_hidden): Sequential(
        (0): Linear(in_features=128, out_features=512, bias=True)
        (1): SiLU()
      )
      (to_qk): Sequential(
        (0): Linear(in_features=128, out_features=128, bias=True)
        (1): SiLU()
      )
      (qk_offset_scale): OffsetScale()
      (to_out): Linear(in_features=256, out_features=128, bias=True)
    )
    (1): FLASH(
      (attn_fn): ReLUSquared()
      (rotary_pos_emb): RotaryEmbedding()
      (rel_pos_bias): T5RelativePositionBias(
        (relative_attention_bias): Embedding(32, 1)
      )
      (norm): ScaleNorm()
      (dropout): Dropout(p=0.0, inplace=False)
      (to_hidden): Sequential(
        (0): Linear(in_features=128, out_features=512, bias=True)
        (1): SiLU()
      )
      (to_qk): Sequential(
        (0): Linear(in_features=128, out_features=128, bias=True)
        (1): SiLU()
      )
      (qk_offset_scale): OffsetScale()
      (to_out): Linear(in_features=256, out_features=128, bias=True)
    )
  )
  (to_logits): LayerNorm((128,), eps=1e-05, elementwise_affine=True)
  (embeddings): ModuleList(
    (0): Embedding(8, 128)
    (1): Embedding(72, 128)
    (2): Embedding(79, 128)
    (3): Embedding(64, 128)
    (4): Embedding(59, 128)
    (5): Embedding(10, 128)
    (6): Embedding(2884, 128)
    (7): Embedding(222, 128)
    (8): Embedding(3, 128)
    (9): Embedding(3, 128)
    (10): Embedding(3, 128)
  )
  (pos_embeddings): Embedding(11, 128)
)
Discretizing table... done, took 4.9s
Epoch 0 Iter 0, train entropy gap 36.6638 bits (loss 56.045, data 19.381) 
Epoch 0 Iter 200, train entropy gap 1.1532 bits (loss 20.534, data 19.381) 
Epoch 0 Iter 400, train entropy gap 0.9574 bits (loss 20.338, data 19.381) 
Epoch 0 Iter 600, train entropy gap 1.0808 bits (loss 20.462, data 19.381) 
Epoch 0 Iter 800, train entropy gap 1.2093 bits (loss 20.590, data 19.381) 
…
