…
 5   Fuel Type             object        
 6   Reg Valid Date        datetime64[ns]
 7   Color                 object        
 8   Scofflaw Indicator    object        
 9   Suspension Indicator  object        
 10  Revocation Indicator  object        
dtypes: datetime64[ns](1), object(10)
memory usage: 614.0+ MB
None
ordering [ 0  1  2  3  4  5  6  7  8  9 10]
Number of model parameters: 544177 (~= 2.1MB)
FLASHTransformer(
  (layers): Sequential(
    (0): FLASH(
      (attn_fn): ReLUSquared()
      (rotary_pos_emb): RotaryEmbedding()
      (rel_pos_bias): T5RelativePositionBias(
        (relative_attention_bias): Embedding(32, 1)
      )
      (norm): ScaleNorm()
      (dropout): Dropout(p=0.0, inplace=False)
      (to_hidden): Sequential(
        (0): Linear(in_features=128, out_features=512, bias=True)
        (1): SiLU()
      )
      (to_qk): Sequential(
        (0): Linear(in_features=128, out_features=128, bias=True)
        (1): SiLU()
      )
      (qk_offset_scale): OffsetScale()
      (to_out): Linear(in_features=256, out_features=128, bias=True)
    )
  )
  (to_logits): LayerNorm((128,), eps=1e-05, elementwise_affine=True)
  (embeddings): ModuleList(
    (0): Embedding(2, 128)
    (1): Embedding(69, 128)
    (2): Embedding(77, 128)
    (3): Embedding(63, 128)
    (4): Embedding(57, 128)
    (5): Embedding(8, 128)
    (6): Embedding(2828, 128)
    (7): Embedding(218, 128)
    (8): Embedding(2, 128)
    (9): Embedding(2, 128)
    (10): Embedding(2, 128)
  )
  (pos_embeddings): Embedding(11, 128)
)
Discretizing table... done, took 3.7s
Epoch 0 Iter 0, train entropy gap 31.7564 bits (loss 51.100, data 19.343) 
Epoch 0 Iter 200, train entropy gap 2.9626 bits (loss 22.306, data 19.343) 
Epoch 0 Iter 400, train entropy gap 2.0793 bits (loss 21.423, data 19.343) 
Epoch 0 Iter 600, train entropy gap 2.1560 bits (loss 21.499, data 19.343) 
Epoch 0 Iter 800, train entropy gap 2.2655 bits (loss 21.609, data 19.343) 
…
