…
        [ True,  True,  True,  True,  True,  True,  True, False, False, False,
         False],
        [ True,  True,  True,  True,  True,  True,  True,  True, False, False,
         False],
        [ True,  True,  True,  True,  True,  True,  True,  True,  True, False,
         False],
        [ True,  True,  True,  True,  True,  True,  True,  True,  True,  True,
         False],
        [ True,  True,  True,  True,  True,  True,  True,  True,  True,  True,
          True]])
Number of model parameters: 2983936 (~= 11.4MB)
Transformer(
  (blocks): Sequential(
    (0): Block(
      (mlp): Sequential(
        (0): Conv1d()
        (1): GeLU()
        (2): Conv1d()
      )
      (norm1): LayerNorm()
      (norm2): LayerNorm()
      (attn): FlashMHA(
        (Wqkv): Linear(in_features=256, out_features=768, bias=True)
        (inner_attn): FlashAttention()
        (out_proj): Linear(in_features=256, out_features=256, bias=True)
      )
    )
    (1): Block(
      (mlp): Sequential(
        (0): Conv1d()
        (1): GeLU()
        (2): Conv1d()
      )
      (norm1): LayerNorm()
      (norm2): LayerNorm()
      (attn): FlashMHA(
        (Wqkv): Linear(in_features=256, out_features=768, bias=True)
        (inner_attn): FlashAttention()
        (out_proj): Linear(in_features=256, out_features=256, bias=True)
      )
    )
    (2): Block(
      (mlp): Sequential(
        (0): Conv1d()
        (1): GeLU()
        (2): Conv1d()
      )
      (norm1): LayerNorm()
      (norm2): LayerNorm()
      (attn): FlashMHA(
        (Wqkv): Linear(in_features=256, out_features=768, bias=True)
        (inner_attn): FlashAttention()
        (out_proj): Linear(in_features=256, out_features=256, bias=True)
      )
    )
    (3): Block(
      (mlp): Sequential(
        (0): Conv1d()
        (1): GeLU()
        (2): Conv1d()
      )
      (norm1): LayerNorm()
      (norm2): LayerNorm()
      (attn): FlashMHA(
        (Wqkv): Linear(in_features=256, out_features=768, bias=True)
        (inner_attn): FlashAttention()
        (out_proj): Linear(in_features=256, out_features=256, bias=True)
      )
    )
  )
  (norm): LayerNorm()
  (embeddings): ModuleList(
    (0): Embedding(8, 256)
    (1): Embedding(72, 256)
    (2): Embedding(79, 256)
    (3): Embedding(64, 256)
    (4): Embedding(59, 256)
    (5): Embedding(10, 256)
    (6): Embedding(2884, 256)
    (7): Embedding(222, 256)
    (8): Embedding(3, 256)
    (9): Embedding(3, 256)
    (10): Embedding(3, 256)
  )
  (pos_embeddings): Embedding(11, 256)
)
Discretizing table... done, took 5.1s
Epoch 0 Iter 0, train entropy gap 36.7659 bits (loss 56.147, data 19.381) 
Epoch 0 Iter 200, train entropy gap 30.6607 bits (loss 50.042, data 19.381) 
Epoch 0 Iter 400, train entropy gap 17.2752 bits (loss 36.656, data 19.381) 
Epoch 0 Iter 600, train entropy gap 8.3137 bits (loss 27.694, data 19.381) 
Epoch 0 Iter 800, train entropy gap 1.3767 bits (loss 20.758, data 19.381) 
…
