…
        [ True,  True,  True,  True,  True,  True,  True, False, False, False,
         False],
        [ True,  True,  True,  True,  True,  True,  True,  True, False, False,
         False],
        [ True,  True,  True,  True,  True,  True,  True,  True,  True, False,
         False],
        [ True,  True,  True,  True,  True,  True,  True,  True,  True,  True,
         False],
        [ True,  True,  True,  True,  True,  True,  True,  True,  True,  True,
          True]])
Number of model parameters: 418816 (~= 1.6MB)
Transformer(
  (blocks): Sequential(
    (0): Block(
      (mlp): Sequential(
        (0): Conv1d()
        (1): GeLU()
        (2): Conv1d()
      )
      (norm1): LayerNorm()
      (norm2): LayerNorm()
      (attn): FlashMHA(
        (Wqkv): Linear(in_features=64, out_features=192, bias=True)
        (inner_attn): FlashAttention()
        (out_proj): Linear(in_features=64, out_features=64, bias=True)
      )
    )
    (1): Block(
      (mlp): Sequential(
        (0): Conv1d()
        (1): GeLU()
        (2): Conv1d()
      )
      (norm1): LayerNorm()
      (norm2): LayerNorm()
      (attn): FlashMHA(
        (Wqkv): Linear(in_features=64, out_features=192, bias=True)
        (inner_attn): FlashAttention()
        (out_proj): Linear(in_features=64, out_features=64, bias=True)
      )
    )
    (2): Block(
      (mlp): Sequential(
        (0): Conv1d()
        (1): GeLU()
        (2): Conv1d()
      )
      (norm1): LayerNorm()
      (norm2): LayerNorm()
      (attn): FlashMHA(
        (Wqkv): Linear(in_features=64, out_features=192, bias=True)
        (inner_attn): FlashAttention()
        (out_proj): Linear(in_features=64, out_features=64, bias=True)
      )
    )
    (3): Block(
      (mlp): Sequential(
        (0): Conv1d()
        (1): GeLU()
        (2): Conv1d()
      )
      (norm1): LayerNorm()
      (norm2): LayerNorm()
      (attn): FlashMHA(
        (Wqkv): Linear(in_features=64, out_features=192, bias=True)
        (inner_attn): FlashAttention()
        (out_proj): Linear(in_features=64, out_features=64, bias=True)
      )
    )
  )
  (norm): LayerNorm()
  (embeddings): ModuleList(
    (0): Embedding(8, 64)
    (1): Embedding(72, 64)
    (2): Embedding(79, 64)
    (3): Embedding(64, 64)
    (4): Embedding(59, 64)
    (5): Embedding(10, 64)
    (6): Embedding(2884, 64)
    (7): Embedding(222, 64)
    (8): Embedding(3, 64)
    (9): Embedding(3, 64)
    (10): Embedding(3, 64)
  )
  (pos_embeddings): Embedding(11, 64)
)
Discretizing table... done, took 4.7s
Epoch 0 Iter 0, train entropy gap 35.0831 bits (loss 54.464, data 19.381) 
Epoch 0 Iter 200, train entropy gap 34.6905 bits (loss 54.071, data 19.381) 
Epoch 0 Iter 400, train entropy gap 33.5519 bits (loss 52.933, data 19.381) 
Epoch 0 Iter 600, train entropy gap 31.6334 bits (loss 51.014, data 19.381) 
Epoch 0 Iter 800, train entropy gap 29.2298 bits (loss 48.611, data 19.381) 
…
